…
      "outputs": [
        {
          "output_type": "stream",
          "name": "stdout",
          "text": [
            "Model: \"model\"\n",
            "_________________________________________________________________\n",
            " Layer (type)                Output Shape              Param #   \n",
            "=================================================================\n",
            " input_1 (InputLayer)        [(None, 180, 180, 3)]     0         \n",
            "                                                                 \n",
            " rescaling (Rescaling)       (None, 180, 180, 3)       0         \n",
            "                                                                 \n",
            " conv2d (Conv2D)             (None, 178, 178, 32)      896       \n",
            "                                                                 \n",
            " max_pooling2d (MaxPooling2  (None, 89, 89, 32)        0         \n",
            " D)                                                              \n",
            "                                                                 \n",
            " conv2d_1 (Conv2D)           (None, 87, 87, 64)        18496     \n",
            "                                                                 \n",
            " max_pooling2d_1 (MaxPoolin  (None, 43, 43, 64)        0         \n",
            " g2D)                                                            \n",
            "                                                                 \n",
            " conv2d_2 (Conv2D)           (None, 41, 41, 128)       73856     \n",
            "                                                                 \n",
            " max_pooling2d_2 (MaxPoolin  (None, 20, 20, 128)       0         \n",
            " g2D)                                                            \n",
            "                                                                 \n",
            " conv2d_3 (Conv2D)           (None, 18, 18, 256)       295168    \n",
            "                                                                 \n",
            " max_pooling2d_3 (MaxPoolin  (None, 9, 9, 256)         0         \n",
            " g2D)                                                            \n",
            "                                                                 \n",
            " conv2d_4 (Conv2D)           (None, 7, 7, 256)         590080    \n",
            "                                                                 \n",
            " flatten (Flatten)           (None, 12544)             0         \n",
            "                                                                 \n",
            " dense (Dense)               (None, 1)                 12545     \n",
            "                                                                 \n",
            "=================================================================\n",
            "Total params: 991041 (3.78 MB)\n",
            "Trainable params: 991041 (3.78 MB)\n",
            "Non-trainable params: 0 (0.00 Byte)\n",
            "_________________________________________________________________\n"
…
